Titanic/TitanicB/appH/best_model_checkpoint.pth (torch, 33286 bytes, 27 tensors)

seq_layer.0.weight f4 [36, 11]
00000000: c537 5a3e b01b ff3f 3bc3 4440 c3af 59bf
00000010: 4291 35bf 213c d83f 9cf4 1040 d3a2 3940
00000020: cc42 843f c0c8 2a3f b1aa 03bf a524 233e
00000030: ed68 263f ec57 42c0 e10e 89c0 d25b ac3e
00000040: fd4e 2b40 c612 8840 0b18 0c40 6b02 903e
00000050: c7c0 e53d 152e 0340 7e20 813f 11ed 1940
00000060: 1c0a 4340 6d96 1440 699a d7bf 417a 0ac0
00000070: c01b 1a40 0830 133f 3b35 893e c948 763d
00000080: ef22 1240 3134 893f 007f 2a40 6a80 3340
00000090: 8f66 9f3d 9e8e 0ec0 4880 8e3e 48be d9bf
000000a0: 3524 f33e 72b3 aa3f 1cf9 4cbe 237f 533f
000000b0: 55a2 bc3f 3d41 2440 c301 2f40 cdb2 e63f
000000c0: 51ec 643f f39e 0740 5793 5740 cbde 0740
000000d0: 3809 903f 1408 163d 17ac e83f c7b7 0dbe
000000e0: 34bd a4bf d929 01c0 3285 02c0 efac 8a3f
000000f0: 79d5 1ec0 0609 c0be bba3 7bc0 e748 0640
00000100: 1c7f d1be 5f4f 3cc0 7192 c43f 70d3 65bf
00000110: 0ce6 bb3f 800c 14bf 378c d63f db97 433f
00000120: a37d 4540 bbc0 933f b783 e93f 6a58 423f
00000130: b74e 243f e923 b73f 4711 4a40 4da5 a33f
00000140: a38b 8d3f 2849 cc3f 38cd 793f d2c8 2c40
00000150: 3cc9 643f 548f 8d3f 06d7 02bf b8e1 60bf
00000160: 0f0e cc3f 987b e7bf 63f2 ebbe 339d 4a40
00000170: 658f 4340 e622 d9be 4531 3fc0 5b67 4ebf
00000180: a091 d03f 4a78 3640 cba3 3340 babc bd3f
00000190: 33ab a33f 6456 cb3f 15f2 893f 206c 8440
000001a0: ada1 cdbf 2ec2 59c0 37c3 0540 2ade 92bd
000001b0: e746 403f c1f2 1840 713e 9c3f 16cd 2140
000001c0: 4330 9a3e d8ad 3240 943b d2bf 8752 38c0
000001d0: c84c f4bf cceb a0c0 b7c9 4bc0 d23f ce3f
000001e0: 17c0 c23f f16b 21bf 04ce 1340 83ef e83f
000001f0: 9010 b13f 4605 fa3f 82c0 abbf be98 2dc0
00000200: 929f 1d40 5e30 a33f 686d 753f 543b f33e
00000210: 055d df3e 2a94 1640 cbc1 c63f 4754 5540
00000220: b23e 263f 17d7 173f 4ba6 e13f 8761 9fbf
00000230: e608 d33f e065 653f 2bbf 0a40 0bf0 e4bf
00000240: 1658 73bf 5868 8fc0 a49d cb3d bd8f 1abf
00000250: bd11 8440 a6f9 eebf 52e4 2c3f 1453 8dc0
00000260: 1c1d 1a40 ecb8 8ebf 47f9 e53f 9167 ba3f
00000270: 9b61 c33f 5839 d63f 0dba 8a3f 5e17 ff3f
00000280: f434 2740 8ed8 b13f 1583 3a3f 681d 213f
00000290: d39e 3140 b3b8 5e3f d87f 9c3f 5b9b 0a40
000002a0: 4ecf 473f 66f4 17c0 e162 de3f 7c2c 6640
000002b0: a073 81c0 9637 ca3f 8c94 75bf 956e 9c3f
000002c0: 28a3 8c3f e3b4 5440 1381 c83f c252 cd3f
000002d0: fbf6 82bf d7f0 89c0 120e 5cc0 a8b7 bebf
000002e0: 5a43 8a3f 9b10 093f 0999 48c0 d62f 633f
000002f0: cabc 14bf 4213 c23f c24a b7bf 8b6e 0a40
00000300: 79a8 c43f cc10 3540 9959 b53f 8d4d 1840
00000310: de32 a0be e178 cf3e 17a4 0240 7186 d4bf
00000320: e137 b0be 14b9 e3bf f9f0 ea3c 6a5b 1540
00000330: 88d3 b440 20e1 1bc0 3878 533f 07d7 ecbf
00000340: c11d 9abf f729 8f3f 257c bc3f a566 3640
00000350: 4702 2f3f dc32 eb3f 7028 d33f db55 a53e
00000360: 8469 2640 1850 0a40 4cf3 9abf 1049 5a3f
00000370: f3b9 c13f c8a6 8dbf bd03 003f e050 3ac0
00000380: 52bd ca3f 5394 7ac0 304c b3bf cdfe 59c0
00000390: cca7 8ebe 8eec f5bf 01d0 83c0 6749 0b40
000003a0: 3ad3 c4be 1741 2ebe 359d 0b40 c09a 3040
000003b0: 2b60 0e3f 1d7a 143d 1eb2 d2be c671 1240
000003c0: ca40 9b3e df6c 3840 f703 db3f 25ca 9abf
000003d0: 8e3e d03f 7350 51bf 9b9c 243f 789a d83f
000003e0: 8662 8040 2d7e fb3f bb42 523f 9490 3bbf
000003f0: cba9 6740 ee18 593f 9127 bfbf 186c 2740
0.21310337 1.9930325 3.074416 -0.85033816 -0.7092477 1.689335 2.2649298 2.900563
1.0332885 0.6671257 -0.5143233 0.15931948 0.65003854 -3.0366163 -4.2830663 0.33663803
2.676696 4.2522917 2.1889675 0.28126845 0.1121841 2.0496876 1.0088041 2.4050944
3.047492 2.3216813 -1.6843997 -2.1637118 2.4079437 0.57495165 0.26798424 0.060128007
2.2833822 1.0719053 2.6640015 2.8047128 0.077832334 -2.2274547 0.27832246 -1.7011194
0.4748856 1.3336012 -0.20016903 0.8261587 1.473704 2.5664818 2.7344825 1.8023316
0.8942309 2.1190765 3.368368 2.1229732 1.1252813 0.036628798 1.8177518 -0.13839637
-1.287024 -2.0181792 -2.0393796 1.0834025 -2.4817793 -0.37506884 -3.9318683 2.0981996
-0.4091729 -2.9423444 1.535719 -0.89775753 1.467958 -0.57831573 1.676154 0.7640359
3.0857933 1.1543192 1.8243321 0.7591616 0.6418261 1.4307834 3.1573045 1.2784821
1.1058239 1.5959826 0.97578764 2.699757 0.8936956 1.1059365 -0.5110935 -0.8784442
1.594179 -1.8084593 -0.46083364 3.1658447 3.055627 -0.42409438 -2.9873822 -0.8062646
1.6294441 2.8510919 2.8068721 1.482322 1.2786621 1.5885739 1.0777003 4.138199
-1.6064965 -3.4024768 2.09004 -0.07171281 0.7510819 2.3898165 1.2206556 2.5281425
0.30114946 2.7918606 -1.6424432 -2.880037 -1.9085932 -5.028784 -3.1841867 1.6113226
1.5214871 -0.6305533 2.3094492 1.8198093 1.383318 1.9532859 -1.3418124 -2.7124476
2.4628644 1.2749135 0.95870066 0.475062 0.43625656 2.3527932 1.5527891 3.333269
0.64939415 0.59312576 1.7628874 -1.2451638 1.648709 0.89608574 2.167918 -1.7885755
-0.95056283 -4.4814873 0.09942177 -0.6037558 4.1271653 -1.8669937 0.6753589 -4.4163914
2.4080267 -1.1150184 1.7966698 1.4562856 1.5264162 1.673625 1.0838028 1.9929006
2.612607 1.3894212 0.72856265 0.62935495 2.7753189 0.8700058 1.2226515 2.1657321
0.78050697 -2.374292 1.7373925 3.596465 -4.0453644 1.5798213 -0.9592979 1.2221247
1.0987291 3.3235404 1.566439 1.6040881 -1.0231622 -4.3106494 -3.4383588 -1.4899797
1.0801804 0.5354096 -3.1343405 0.88744867 -0.5810057 1.5162127 -1.4319689 2.162997
1.5363914 2.8291502 1.4167968 2.3797333 -0.3128881 0.4052191 2.0412652 -1.6603528
-0.34417632 -1.7790856 0.028679358 2.3337045 5.6508217 -2.4356155 0.82605314 -1.8503121
-1.204033 1.1184682 1.4725386 2.850015 0.6836285 1.8374896 1.6496716 0.32292065
2.6001902 2.1611385 -1.2105498 0.85267735 1.5134872 -1.1066523 0.50005704 -2.9111862
1.5839026 -3.915303 -1.4007626 -3.4061768 -0.27862394 -1.9212816 -4.119141 2.1763551
-0.38442403 -0.17017017 2.1814702 2.7594452 0.5561549 0.03624927 -0.41151518 2.2881942
0.30322868 2.881645 1.7110585 -1.209294 1.626909 -0.8176338 0.6430146 1.692214
4.012027 1.9647881 0.8213307 -0.73267484 3.6197383 0.84803665 -1.493395 2.6159725

seq_layer.0.bias f4 [36]
00000000: 9600 4040 67d8 3f40 cb46 3940 002a 3940
00000010: ba3c 1940 ed9c 9040 ef2d 7240 c89b 2840
00000020: 1767 4940 8f82 7440 f616 3a40 ce4a 6840
00000030: 47f6 4c40 7cf7 ab40 09c7 1c40 8515 3140
00000040: 516f 1140 514d 5a40 8eb4 6640 a673 1640
00000050: 5e3c 9340 c194 4c40 b77f 5240 aabb 5a40
00000060: e3b0 4940 9801 2340 b357 8e40 59f1 6440
00000070: 37c2 7c40 bd64 2240 6bc4 4940 01fe 6940
00000080: f26b 8340 bf91 5140 adb3 7840 0f14 4340
3.0000358 2.9975832 2.8949459 2.8931885 2.3943315 4.519156 3.7840536 2.6345081
3.146917 3.8204687 2.9076514 3.6295657 3.2025316 5.3739605 2.4496481 2.7669384
2.2724192 3.410969 3.6047702 2.3508086 4.601119 3.1965792 3.289045 3.417704
3.1514213 2.5469723 4.4482055 3.5772307 3.949354 2.5373986 3.1526134 3.6561282
4.106927 3.2745206 3.8859665 3.0480993

seq_layer.2.weight f4 [24, 36]
00000000: d62f 533f 3624 1b40 333d 903f de61 843f
00000010: 4e70 673f acd1 2540 a1b3 ef3f 243e 7b3f
00000020: 6b72 4e40 2be4 0440 bbe1 2d40 2dc9 ae3f
00000030: e1ba 5e3f f5fb 7940 a1a9 913f 5fde 7b3f
00000040: 0cf4 3740 b14d 913f cc79 f13f 5675 9e3f
00000050: bd52 4940 26cf cd3f 48a1 0640 7cdd ef3f
00000060: 36fb 0e40 887e c03f 0852 6340 0f07 1040
00000070: 2add f13f 08a8 873f c2c1 0640 4d12 4340
00000080: b309 3d40 2a43 9c3f 5a92 1040 1acd 6540
00000090: 1a7d 0040 74cb 4940 ba25 0a40 377b 0a40
000000a0: 345b 1140 60d6 3640 2905 f03f 19f4 f63f
000000b0: 68dd 2c40 248c f83f 76d2 2c40 65eb 0140
000000c0: 57d2 c43f 777f 7140 c482 e63f f384 2340
000000d0: 55d6 3b40 db8f f03f 73c9 2d40 07dc d43f
000000e0: 32f1 4240 ef80 0c40 e183 0640 1236 3640
000000f0: ccec 1040 ff49 e33f 332b 2e40 af63 2540
00000100: ea37 1340 15b4 0940 e70d 0c40 93d2 3440
00000110: 503e 5240 e2d1 0440 e7b9 3940 50a5 2540
00000120: 11d3 1240 bba4 3040 cc88 1240 3892 f43f
00000130: ab35 e03f 2f3d 4340 bba5 f63f 3e41 0f40
00000140: 0e50 4940 1834 2e40 18f3 4240 aecf 2440
00000150: 6b23 1940 a923 8040 097b fa3f c68e f93f
00000160: 3402 4c40 49e4 f93f 2fe5 3640 82f1 dd3f
00000170: 405f 6b40 7c52 0040 9d08 f33f 4390 1340
00000180: 550d 2140 457b 0940 6e5c 3640 16fc 2b40
00000190: 04e4 3440 0d86 de3f 90e9 ea3f 5d13 5140
000001a0: 7c7a 5540 63da 1f40 9170 5a40 a272 8240
000001b0: a1f9 0dbf d32e b8be c5ab 7dbf fbab 4fbf
000001c0: 221b 3dbf ea15 37bf 2cb4 3abf 97f5 dbbe
000001d0: 93f1 b5be 6c50 12bf 2e3b cdbe 8184 17bf
000001e0: a909 00bf e010 10bf 4639 14bf ddb9 e0be
000001f0: d335 efbe cd82 e9be 64d3 80bf 35ad 20bf
00000200: b18d aebe 8f10 0dbf 6709 7cbf 1be6 debe
00000210: 722d 61bf 35f7 3cbf cb21 52bf 5aa4 56be
00000220: 3a8d 56bf c38a 5abf 72a6 fcbe 5240 38bf
00000230: 375c bfbe 86ad 4dbf 3415 06bf 5f2a 41bf
00000240: 8796 8a3f 6bee 2240 fea1 af3f 7b08 9e3f
00000250: 04c3 683f 972b 3b40 da60 aa3f 7db9 aa3f
00000260: 628b 1540 1e11 d43f 6f07 1840 a703 9d3f
00000270: b5dd a23f e452 4e40 9d42 6d3f 6b72 ad3f
00000280: f490 0040 ef07 7d3f b8d1 2540 c2e4 763f
00000290: e898 3d40 99ad bb3f 6d73 c93f 75d6 0c40
000002a0: 786c d43f f147 863f 0520 1e40 cdea 6e3f
000002b0: 8504 fa3f ccbc 9b3f eb55 a43f c57a 1840
000002c0: ce19 4640 379b 693f af2e 3e40 853c 1740
000002d0: b107 37bf c9ab 3ebf 265d 0ebf d830 193e
000002e0: 1e95 6bbf 7e81 83bf 5947 ddbe a932 e6be
000002f0: 1208 f2be e610 bbbe 5456 d23d 1d7c 1fbf
00000300: cee5 07bf 0cdc 04be 9f57 43bf f1f9 84bf
00000310: 72c0 333d 14c0 2ebf 5938 fcbe 7567 b13e
00000320: 6bfc 93bf 03f4 21bf 1c17 79bf 501a 8ebf
00000330: 06be e0be 2018 00bf 120c 82bf 1c2b 32bf
00000340: 3d35 1abe 2087 1bbf 2d70 c9be 9d94 7bbf
00000350: 34d6 bfbe 6b46 22bf 8c48 99be a81a 70bf
00000360: 138c fa3f 919f 1740 c39c 0040 5717 f03f
00000370: 0abd ba3f deec 2040 bae6 e73f 7d70 ca3f
00000380: cb4a 3d40 2bab 1c40 7426 3940 7918 0440
00000390: 0b47 fd3f 88ea 6b40 fa83 f93f 4744 e83f
000003a0: 74c9 1c40 0a95 f23f 5596 2c40 fb69 f83f
000003b0: be4f 5b40 c40f 1540 839d 2940 5f8e 3340
000003c0: 7435 e93f 4730 eb3f eec8 2840 410c 1740
000003d0: 4cc6 5a40 3df9 1640 211a 1d40 936b 4740
000003e0: ca27 2640 3c00 fd3f d14f 3b40 d375 5540
000003f0: 7a4d 28bf 8af0 88be a069 e4be ca69 0abf
0.82494867 2.4240851 1.1268677 1.0342367 0.9040574 2.5909224 1.8726693 0.98141694
3.2257335 2.0764263 2.7169025 1.3655144 0.87003905 3.9060032 1.1379892 0.98386186
2.8742704 1.1351835 1.8865294 1.2379558 3.145675 1.6078842 2.1035938 1.8739467
2.2340827 1.5038614 3.5518818 2.2504308 1.8895619 1.0598154 2.105576 3.047992
2.953717 1.2207997 2.2589326 3.5906434 2.0076356 3.1530428 2.1585526 2.1637704
2.2711916 2.8568344 1.8751575 1.9293243 2.7010136 1.9417768 2.7003455 2.0299923
1.5376691 3.7734048 1.8008657 2.5549896 2.9349568 1.8793901 2.7154205 1.6629647
3.0459714 2.1953695 2.1017992 2.8470502 2.264453 1.7756957 2.7213867 2.5842092
2.3002877 2.1516163 2.1883485 2.8253524 3.2850533 2.0753102 2.9019716 2.5882149
2.2941325 2.7600543 2.2895994 1.9107122 1.7516378 3.0506094 1.9269327 2.238357
3.1455112 2.7219296 3.0460873 2.5751758 2.3927867 4.004353 1.9568797 1.9496696
3.1876345 1.9522792 2.8577383 1.7339327 3.6776886 2.0050344 1.8987004 2.30568
2.5164387 2.1481488 2.8493915 2.687261 2.826417 1.7384659 1.8352528 3.2668068
3.3356009 2.4977043 3.4131205 4.0764933 -0.5545903 -0.35973224 -0.99090225 -0.81121796
-0.73869526 -0.71517813 -0.7293117 -0.42960808 -0.3553587 -0.57153964 -0.40084213 -0.5918656
-0.5001474 -0.5627575 -0.5789989 -0.43891802 -0.46720752 -0.45607606 -1.0064511 -0.6276429
-0.34092477 -0.5510339 -0.98451847 -0.43534932 -0.8795997 -0.7381471 -0.82082814 -0.20961133
-0.83809245 -0.85367984 -0.49345738 -0.71973145 -0.37375042 -0.803429 -0.52376103 -0.7545528
1.0827187 2.5458019 1.3721311 1.2346338 0.9092257 2.9245355 1.3310807 1.3337857
2.3366323 1.6567724 2.3754537 1.226674 1.272391 3.2238092 0.9267977 1.3550543
2.0088472 0.9884023 2.5909252 0.96442807 2.9624577 1.4662353 1.573835 2.2005894
1.6595602 1.0490705 2.4707043 0.9332703 1.9532629 1.2166991 1.283872 2.3824933
3.095325 0.91252464 2.9715993 2.3630688 -0.7149611 -0.74480873 -0.55610883 0.14960039
-0.9202441 -1.0273893 -0.43218496 -0.44960526 -0.47271782 -0.3653633 0.10270372 -0.62298757
-0.5308503 -0.12974566 -0.76305574 -1.0388776 0.043884702 -0.6826184 -0.4926174 0.34649244
-1.1561407 -0.6326296 -0.9730089 -1.110178 -0.43894976 -0.5003681 -1.0159934 -0.6959703
-0.15059371 -0.6075306 -0.39343396 -0.9827364 -0.37468112 -0.633887 -0.2993816 -0.93790674
1.9573997 2.3691142 2.009568 1.8757123 1.458894 2.5144572 1.8117287 1.5815579
2.95769 2.4479473 2.892972 2.0639937 1.9787306 3.6861897 1.9493401 1.8145837
2.4497957 1.8951733 2.6966755 1.9407343 3.426742 2.3290873 2.6502388 2.8055646
1.8219438 1.8374108 2.6372638 2.360123 3.418353 2.3589623 2.4547198 3.1159408
2.5961785 1.9765697 2.9267466 3.3353164 -0.6574322 -0.26746017 -0.44611835 -0.5406767

seq_layer.2.bias f4 [24]
00000000: b540 6d40 17c5 7b40 a7c5 8540 b2bd 19bf
00000010: d78e 6040 a938 ccbe 1ccc 7740 e9a5 25bf
00000020: 34d2 7340 6553 f4be e674 6a40 9bd4 6f40
00000030: 2760 8240 6749 1bbf b4bd 19bf 6784 6840
00000040: 624c 7940 cffa 7d40 19a3 2dbf 6bc1 8040
00000050: 483c 8340 6400 7540 d1f1 5840 b1bd 19bf
3.7070744 3.9339044 4.1803775 -0.6005508 3.5087183 -0.39886978 3.8718328 -0.64706284
3.8097048 -0.47719875 3.663385 3.7473514 4.0742373 -0.6065888 -0.6005509 3.6330812
3.895287 3.9684331 -0.6782699 4.0236106 4.1011086 3.8281488 3.3897593 -0.6005507

seq_layer.5.weight f4 [12, 24]
00000000: 2f0f e5be 56f5 63bf 9b55 3bbf 0443 e9be
00000010: 631f 46bf fc98 11bf 90a9 5bbf 6252 3fbf
00000020: fda8 5ebf bace 83bf 58fb 1abf 70ee ebbd
00000030: e52b 9cbe 17a6 76bf 1ac3 a3be feb3 66bf
00000040: 299c 4ebf 51f9 73be 8fe0 ecbd 2859 88bf
00000050: efd7 26bf 4aa3 7bbf 1252 debe 8e10 64bf
00000060: 478f 1140 c993 ca3f 40ba e23f f144 0d3f
00000070: 1783 dd3f 562c 9c3f 415e e73f 14b9 74bf
00000080: ea3c d63f 6f04 52bf 441c 2140 83c3 2b40
00000090: e25d 1f40 47a5 d0be f078 963e e52f b73f
000000a0: b0dd 0740 5d9f 2d40 db5a 353f 3412 c83f
000000b0: 5686 2c40 8e61 b73f 79ad e73f d93f 633f
000000c0: a8f6 3440 24df 1340 3889 eb3f 7fe7 173f
000000d0: d0dc 0c40 3e51 38bf 52b1 2140 7640 483f
000000e0: 537a 2140 c884 213e 2d92 2840 4362 ed3f
000000f0: 691a ec3f 0cdf 733e dca6 74bf a00d 1f40
00000100: 82b6 ed3f 62d9 0240 f1da 353f 858a 983f
00000110: 5d11 4040 a1bd 0640 9497 1a40 b328 84bf
00000120: 8686 1340 d028 1a40 fc10 2340 3254 143f
00000130: 32e4 c63f c3e6 173f 5587 3240 d617 96bd
00000140: 9596 1340 f946 c13e f008 0b40 8c89 0b40
00000150: 85ea 1d40 4a95 843f 5078 023e b699 2840
00000160: 3f69 1040 ddab 1340 4f3f d93e 3431 0140
00000170: e396 2e40 37f1 0240 a5ad f63f 7258 b53e
00000180: d57b 3940 e2b6 0740 40c7 0e40 d5ef 7d3e
00000190: a55e 1640 9160 0bbe f8c4 0e40 f67b 543f
000001a0: 4d35 fb3f 7529 f1be 04e9 1240 009c 1440
000001b0: 47ac 0540 4ee4 003f 31c3 783f 4ed7 0440
000001c0: 3c21 f43f e31a dd3f 6b66 423f 8c56 f63f
000001d0: d7b8 1e40 cda1 bc3f f6d3 2040 67f5 723e
000001e0: d863 81be 38e7 14bf 24ef 06bf f240 f9be
000001f0: a459 22bf 6781 b6be 13a1 ecbe 274d 5abe
00000200: d74b 6abf 7642 a3be 91bd c3be 2c1f e4be
00000210: 96cc 78bf d652 1bbe 557e f6bd 3f80 41be
00000220: ca36 3cbf 6c36 30be 9680 28be 5ecc 7bbf
00000230: 3685 f2be b883 e5be a3fd 08bf edde 8dbe
00000240: 5c93 3cbe bec0 393e 740c 68bf 5889 933d
00000250: 18f1 a5be 9a51 b13e dd76 15bf 6fdc 76bf
00000260: 38a0 72bf 69ad a03e c9a0 42bf e647 143f
00000270: 3cb0 c6bc cecf 0dbf 7ecd bb3e 4b7a 42bc
00000280: b121 53bf 5094 1a3e 5f47 783f 38a6 d7be
00000290: 5a42 db3d 6cab 45be 93a6 77bf 7485 583f
000002a0: 11c2 e43f 87c1 1340 deae 2140 ec3d 053f
000002b0: 9e37 1540 97ed 6a3e 81e8 ef3f 85aa 0a3f
000002c0: c607 1740 17cb 313f 4e56 0040 e28b 0440
000002d0: 2c95 1140 8543 223f 3fe1 333f cc0e cc3f
000002e0: d37a 1640 e98a 2940 8e9f 113f e900 1740
000002f0: 5dd7 1440 e25f 2340 0b7d bf3f 6196 a43e
00000300: b928 20bf 86a6 51bf 8030 40bf da93 5dbe
00000310: c69c b0be 1370 84bf 37d3 adbe e7da 7bbe
00000320: ecaa 55bf 07a1 52be 6b4b cdbe 5556 23bf
00000330: b310 02be a8f8 03bf 07e7 4bbf 282e 58bf
00000340: 4c00 dcbe ed41 82bf aceb 00be d965 c5be
00000350: ca58 e4be 5b92 a4be 5af3 32bf b3d7 0dbf
00000360: d015 1a40 0a24 ec3f bf30 2240 bcf7 323f
00000370: c16f b43f 9f71 5abf 67cf 1c40 c9a8 c0be
00000380: 441f 1040 ccf6 21bf 9395 0e40 5d55 dd3f
00000390: e6f3 1340 d45d 123f be3c 533f 61a6 0340
000003a0: ae73 d33f 20a5 0240 6f50 033e 7cd4 b23f
000003b0: d7f7 2b40 9c5e 993f 5375 1140 d05c c5be
000003c0: 6e96 56bf 4a03 b1be 14b5 8bbf c9c1 5bbf
000003d0: 9414 6fbe c5a9 2bbf 22dc 40bf 02c6 0abf
000003e0: 3dc7 05bf 5b8c 73bf 3114 1abf ca68 42be
000003f0: ec37 5f3e b1c2 86bf 841f 5d3f 95d8 dbbd
-0.44738147 -0.8904623 -0.731775 -0.4555894 -0.7739164 -0.5687406 -0.85805607 -0.7473508
-0.86976606 -1.0297463 -0.6053977 -0.11520088 -0.3050224 -0.96347183 -0.31984788 -0.90118396
-0.8070703 -0.23825575 -0.11566269 -1.0652208 -0.6517324 -0.98296034 -0.4342199 -0.8908776
2.27437 1.582635 1.7713089 0.5518332 1.730563 1.220103 1.8075639 -0.95594907
1.673734 -0.82038015 2.5173502 2.683808 2.4901052 -0.40751097 0.29389143 1.4311491
2.1229057 2.7128518 0.7084176 1.5630555 2.6956992 1.4326646 1.8099815 0.887693
2.8275547 2.3104944 1.8401251 0.5933761 2.2009773 -0.71998966 2.5264478 0.7822336
2.523091 0.15773308 2.6339219 1.8545612 1.844556 0.23815554 -0.9556711 2.4852066
1.8571322 2.044518 0.71037203 1.1917273 3.0010598 2.105324 2.4155016 -1.032492
2.3050857 2.408741 2.5479116 0.5794097 1.553839 0.5933649 2.78951 -0.07328765
2.3060658 0.3774946 2.1724205 2.1802702 2.467439 1.035806 0.12741208 2.6343818
2.2564237 2.3073647 0.42431113 2.0186281 2.7279594 2.0459726 1.9271742 0.3541904
2.898183 2.1205373 2.2309113 0.2479852 2.3495266 -0.13611056 2.230772 0.8300165
1.9625641 -0.47101942 2.2954721 2.3220215 2.08864 0.50348365 0.9717284 2.0756412
1.9072642 1.727383 0.7593753 1.9245162 2.4800317 1.4736878 2.512937 0.23726426
-0.25271487 -0.5816531 -0.5270865 -0.48682362 -0.6341803 -0.356456 -0.4621664 -0.21318494
-0.9152197 -0.31886643 -0.38230565 -0.44555032 -0.97187173 -0.15168318 -0.12035815 -0.18896578
-0.735211 -0.1720826 -0.16455302 -0.98358715 -0.47367257 -0.44827056 -0.5351202 -0.2770914
-0.18415588 0.18139932 -0.90644 0.072039306 -0.32410502 0.3463257 -0.58384496 -0.96430105
-0.94775724 0.313823 -0.7602659 0.5792221 -0.024253957 -0.5539521 0.36680216 -0.011869977
-0.82473284 0.15095639 0.96983904 -0.42119002 0.10706015 -0.19303674 -0.9673855 0.84578633
1.7871724 2.308687 2.526298 0.5204761 2.3315196 0.22942196 1.874283 0.5416644
2.3598495 0.69450516 2.0052676 2.0710378 2.2747297 0.63384277 0.70265573 1.5942016
2.3512466 2.6491034 0.56884086 2.3594306 2.3256447 2.5527272 1.4960035 0.3214598
-0.6256214 -0.8189472 -0.75074005 -0.21638432 -0.3449461 -1.0346702 -0.33950207 -0.24595223
-0.8346393 -0.2056924 -0.40096602 -0.6380361 -0.12701683 -0.51551294 -0.79649395 -0.8444543
-0.42968976 -1.0176369 -0.12589902 -0.38554266 -0.4459899 -0.3214291 -0.69902575 -0.55407256
2.4075813 1.8448498 2.5342252 0.6990926 1.4096605 -0.8532962 2.4501588 -0.37628773
2.2519083 -0.6326721 2.2278793 1.7291676 2.3117614 0.5717442 0.8251456 2.05703
1.6519678 2.0413284 0.12823652 1.3971095 2.687002 1.1981997 2.272786 -0.38547373
-0.8382329 -0.34572822 -1.0914636 -0.8584257 -0.23347694 -0.6705592 -0.75335896 -0.54208386
-0.5225714 -0.9513604 -0.6018706 -0.18985286 0.21798676 -1.0528165 0.86376214 -0.10734669

seq_layer.5.bias f4 [12]
00000000: b1bd 19bf a52d 9e40 2965 a640 5d85 a640
00000010: 230d a340 f9d0 1abf c8ad d0be 5679 9f40
00000020: b2bd 19bf d2e8 a140 2136 1abf 5c71 9e40
-0.6005507 4.943072 5.1998487 5.2037797 5.0953536 -0.60475117 -0.40757585 4.9835615
-0.6005508 5.0596704 -0.60238844 4.951338

seq_layer.8.weight f4 [12, 12]
00000000: b4b6 2fbf 86b5 1440 5ca7 883f c40d 1d40
00000010: f9d4 0240 9654 17bf 7fb7 99be 5235 a03f
00000020: 410d a0bf de5a 2240 33ae 4cbe 553b 5340
00000030: ceaa 52be 936c 9cbf 7249 27bf 1fed e6be
00000040: 1822 84bf 2479 fabe 6834 1bbf 6e2c 12bf
00000050: 82e7 bebd 1ab8 51bf bde8 71be baa7 19bf
00000060: 2634 8bbe a401 0e40 365a 0840 6f04 0040
00000070: dd33 0340 9e11 0ebf 533c 203d 0e8b 1040
00000080: da44 5e3f 5fbb a73f 2f53 513f 4aee 0e40
00000090: e238 323f e025 1340 5a36 db3f c1f3 fd3f
000000a0: 8da9 2640 caf1 8a3f 88f3 5b3f 477b 1040
000000b0: 31f1 283e e1b5 d63f b928 d63e bafd 0640
000000c0: 9370 dd3d 6e56 bf3f 9e35 0640 331b 0540
000000d0: 3128 e03f d9d0 2ebd d960 073e ad3b 2940
000000e0: 865d 503f 0719 d63f 6130 3f3f 7af8 ef3f
000000f0: b4dc 993e 86a3 ed3f e511 2340 40e2 2340
00000100: c785 2140 845e 813f 0d69 113e 9b02 9c3f
00000110: 8a93 813d b94a 0a40 721b d93c 6bb7 f13f
00000120: 2a2a 0a3f d5c9 15bf b6aa b3be 677d 84be
00000130: 9243 63bf f860 38bd b77e 1b3f a7d9 4fbe
00000140: 3ec8 1dbf c9eb ecbe 34a3 32bf 88c2 b0be
00000150: 1c6e 8cbf a46e 1240 46f6 d63f 90a0 0b40
00000160: 45bf 2f40 f7d4 0ebf c200 29bf 6dfc 1040
00000170: 295d 5ebf 11ce f13f f970 6dbf 4c81 fc3f
00000180: ec2c 64bd 71d0 2e40 4985 0240 56e7 493f
00000190: b4a2 ae3f 9407 10bf 5d4b fdbe 4eb9 0e40
000001a0: 90af 16bf 9129 9b3f 58f8 10be 30fa 2240
000001b0: 5ecb 9a3f cfbe e53f 9624 f73f 19ae 2a40
000001c0: f0ad de3f b180 1c3e 3ccd bf3e 0764 1040
000001d0: e322 093f 4e31 2140 776d a23f b13e 2940
000001e0: 9c46 9ebf b28f 18bf 0fb2 38bf 3252 63bf
000001f0: 5356 fdbe dabb a83d f261 4dbf 29a8 96bf
00000200: 347f 4cbf 1081 5fbf c680 80bf 9abc b13d
00000210: e266 1d3f 29ef 1940 3da2 f63f b55f 0940
00000220: 6231 0e40 d5a8 1b3f 5ff0 6c3f 6f38 0e40
00000230: 032a 313f 0808 a53f fda6 153f 27d7 c23f
-0.6863816 2.3235793 1.0676074 2.4539652 2.0442488 -0.5911344 -0.3002281 1.2516272
-1.2504045 2.536796 -0.19988327 3.3004963 -0.2057297 -1.2220634 -0.65346444 -0.45102784
-1.0322905 -0.48920548 -0.6062684 -0.57099044 -0.093215 -0.8192154 -0.23623939 -0.60021555
-0.27188224 2.2188501 2.130506 2.0002706 2.0500405 -0.5549563 0.03912003 2.2584872
0.8682381 1.3104056 0.81767553 2.233294 0.69618046 2.2991867 1.7125962 1.9840013
2.6040986 1.0855038 0.85918474 2.2575243 0.16498257 1.6774255 0.41827944 2.1092362
0.108124875 1.4948251 2.0970225 2.079785 1.7512265 -0.04267964 0.13220538 2.6442673
0.81392705 1.6726388 0.74683195 1.8747704 0.30051196 1.8565528 2.5479672 2.5606842
2.5237901 1.0106969 0.1420023 1.2188295 0.06326969 2.1608107 0.026502345 1.88841
0.5397059 -0.58511096 -0.3509118 -0.25876924 -0.8877498 -0.04501435 0.60740227 -0.20297872
-0.6163367 -0.4627364 -0.6978028 -0.34523416 -1.0971103 2.288003 1.6793907 2.181675
2.7460492 -0.5579371 -0.6601678 2.2654068 -0.868609 1.8891011 -0.9275051 1.9726958
-0.055706903 2.7314723 2.039385 0.78868616 1.3643403 -0.56261563 -0.4947156 2.23006
-0.5886164 1.212206 -0.14157236 2.5465202 1.2093313 1.7948855 1.930804 2.666876
1.7396832 0.15283467 0.3746127 2.2561052 0.5356886 2.5186343 1.2689656 2.6444514
-1.2365298 -0.5959426 -0.72146696 -0.88797295 -0.49479923 0.08238955 -0.8022758 -1.1770068
-0.79881597 -0.8730631 -1.0039299 0.08678551 0.6148511 2.4052222 1.9268261 2.1464665
2.221764 0.6080449 0.9255428 2.2221944 0.6920473 1.2893076 0.5845793 1.5221909

seq_layer.8.bias f4 [12]
00000000: 49f5 1a41 b1bd 19bf fa41 d040 5f49 c440
00000010: a406 b740 735f ba40 66c5 45bf c20d bc40
00000020: 228b cf40 0078 bc40 b2bd 19bf 1f4d b840
9.684884 -0.6005507 6.508054 6.1339564 5.7195606 5.8241515 -0.7725433 5.8766794
6.485734 5.8896484 -0.6005508 5.759414

seq_layer.11.weight f4 [1, 12]
00000000: b3d7 2a40 68e0 f63d 177f 1540 37f7 1740
00000010: 938b 1640 3da6 1a40 0962 253e aca4 0f40
00000020: 04ba 2440 8c16 1440 ccf4 293e a675 2040
2.6694152 0.12054521 2.335882 2.3744638 2.352269 2.4163964 0.16150679 2.2444258
2.5738535 2.3138762 0.16597289 2.5071807

exp_avg f4 [36, 11]
00000000: 2d06 dece e1ff bbce 925d 8ccf 0a47 2acf
00000010: b43f f8cd ac34 50ce bc0e 804d 7ff1 e84e
00000020: 2809 adce 4788 77ce 20af 334e 31d3 964e
00000030: 5012 6ace 330e 44ce 93fa 0bcf 885d 15cf
00000040: 7d2f d9ce d9f1 1bcf 49bc 164f 1d6d 25cf
00000050: 8eb7 dccd 9566 534e 28d2 0acf f961 a8ce
00000060: 541a 95cf ceb4 10cf d9f3 7cce c7a8 adcd
00000070: a94e 64cc a2f2 b84e 4aad 30cf 7327 31cf
00000080: 25ca afcd 27c0 bcce e20d 0bcf 9da7 92cf
00000090: 3ab4 37cf 782d cdce 8683 1b4d 4ffe 0c4e
000000a0: 943b 8e4e f2ac c0ce 9e5e 18cf 8ce7 6cce
000000b0: a0cf 9ece bf54 99ce 5099 60cf f54f 30cf
000000c0: 708c 70ce 99b5 34ce 8770 b84c 9093 f24e
000000d0: e380 e5ce dbc5 b8ce 58e9 1a4d e244 8fcc
000000e0: 8255 01cf bc11 65cf 813c 2bcf 1a49 0bcf
000000f0: 452b 99cd 0c0e 10cf 0657 1a4f 779b d2ce
00000100: 19b9 54ce a544 5b4e 680c 9ece ee54 93ce
00000110: 690d 75cf 6e7b 2dcf cea4 9fce 7622 bfce
00000120: 3358 09ce 91de e64e 2c9f eece 710f c8cc
00000130: 4b99 a84d ad87 bece 5e10 3ece 8487 3bcf
00000140: a3c6 d9ce 0fdf 97ce d3f7 0ace 57c3 37cc
00000150: 909f af4e d48d eace ae2e a4ce 730e 5c4c
00000160: 4444 0ecf 91b1 3fcf cb43 d3cf 3dec 76cf
00000170: 765a 9ece 6b42 2dcf 86ab eccd dbf6 ef4e
00000180: 5fb4 8ccf a237 bece 844d bace c659 07cf
00000190: 22c1 1ccf 0814 b9cf debd b6ce 769b 52ce
000001a0: efb7 fecd ba49 694e d5ed dc4e d2c4 5dce
000001b0: ac80 c6ce e589 48ce e2e5 44cf b6cf 4fcf
000001c0: 0d2b 02d0 4eaa 42cf 18b5 2fcf 9092 4fce
000001d0: 49e7 ed4e 0b4d 0e4f 4122 14cf 14cc 26cf
000001e0: 73ff 0c4e 19d6 efce 647d 07cf 4f31 86cf
000001f0: 9687 d5ce 5725 67ce 75b8 0fce c8fa 514e
00000200: ecb6 024f 81aa ddce 17dc b9ce 9ae5 604e
00000210: 83b2 12cf 9230 9fce f2b3 67cf 87b4 16cf
00000220: 87c8 96ce 0b37 58ce 6a54 4a4d 7e3c af4e
00000230: c41d 15cf d5a5 e5ce c577 9a4b 87a0 b24e
00000240: 3572 45ce be95 29cf b9e9 21cf 089d d8ce
00000250: e583 a3cf f5c8 334e 2d3e 004f ab30 5fcd
00000260: a8c0 e54d 4ab8 464f e7d7 92ce 43fc bcce
00000270: e4ee 4ccf e3fd 30cf c40e a6ce fce4 41ce
00000280: fce1 6acd d407 014f 9a0e 14cf abca 8ace
00000290: 899a a74d dfcd 96ce 6759 9ace b7e8 89cf
000002a0: 37e0 65cf 3adc 09cf 29c2 84ce 1054 f4cd
000002b0: 5cbf ec4e 464c 6dcf 77ad e9ce 69c5 4f4e
000002c0: d585 64cf 167c 98cf 5d25 cbcf 96d5 5ccf
000002d0: 0189 3fcf de4c 8d4d 4e73 51ce b325 d84a
000002e0: ef72 3fcf d8f6 2ecf 2806 18cf ccca bcce
000002f0: 5b31 1cce 8a60 3bcf 5cab 09cf 7fa2 adce
00000300: 6b05 66ce 6412 6fcd b581 e94e 3e30 d4ce
00000310: dbe0 16ce 158a b34d eb4d c5ce 203c c0ce
00000320: 8110 22cf 89f9 24cf 5ab5 45cf 4c72 d4ce
00000330: 7942 28cf 4993 794e d492 12cf 53a5 13cf
00000340: 1303 804e fa48 65ce 4d04 a5ce 9221 72cf
00000350: 31c7 22cf 4e06 9bce 5f20 87ce ec4e 11cd
00000360: c023 ba4e a786 f2ce 6f25 87ce a063 36cd
00000370: 5409 f3ce d302 4acf b0f2 95cf 1dfa 03cf
00000380: aa2a 1ccf 40fd 614e 823a 7ece 8c8f 444f
00000390: 5c5f a74d c4a5 ccce acc5 b1cc 94b7 8fce
000003a0: d3e5 dace fc44 82cf 8c79 68cf 039a 12ce
000003b0: 6df0 61ce 95ad 3dcd 2588 164f 7838 10cf
000003c0: 2dc2 04cf 3b7d 30ce c783 99ce 6f00 c7cd
000003d0: 4863 62cf 7a6a 15cf 71d6 88ce 6f80 6bce
000003e0: f913 4fce 20cb e44e 1be0 27cf 265c 31ce
000003f0: 49d0 17cc 9418 dece 4e1c fece 8b1b c0cf
-1.8624733e+09 -1.5770543e+09 -4.709885e+09 -2.8567823e+09 -5.2061555e+08 -8.732782e+08 2.6855616e+08 1.9540704e+09
-1.4515292e+09 -1.03822586e+09 7.5364966e+08 1.2652115e+09 -9.817672e+08 -8.223162e+08 -2.3484547e+09 -2.5059348e+09
-1.821884e+09 -2.6163182e+09 2.5289219e+09 -2.7753915e+09 -4.6287712e+08 8.8667885e+08 -2.3290286e+09 -1.4124965e+09
-5.003061e+09 -2.4277683e+09 -1.0609598e+09 -3.6418992e+08 -5.984938e+07 1.5514545e+09 -2.9641467e+09 -2.9721526e+09
-3.6865757e+08 -1.5833548e+09 -2.3329428e+09 -4.9209165e+09 -3.0820419e+09 -1.7211546e+09 1.63068e+08 5.9136915e+08
1.1931346e+09 -1.6162798e+09 -2.5563377e+09 -9.936494e+08 -1.3322035e+09 -1.286234e+09 -3.768144e+09 -2.95803e+09
-1.0089339e+09 -7.5795e+08 9.669945e+07 2.0348785e+09 -1.9252146e+09 -1.5499872e+09 1.6243648e+08 -7.511426e+07
-2.1698647e+09 -3.8431447e+09 -2.872869e+09 -2.3368238e+09 -3.2121872e+08 -2.4168397e+09 2.5893944e+09 -1.766702e+09
-8.922251e+08 9.1967725e+08 -1.3258066e+09 -1.2359084e+09 -4.1112968e+09 -2.9105475e+09 -1.339189e+09 -1.6033533e+09
-5.760647e+08 1.9366729e+09 -2.0017044e+09 -1.04889224e+08 3.535773e+08 -1.5982813e+09 -7.971859e+08 -3.1462205e+09
-1.8268369e+09 -1.273989e+09 -5.828743e+08 -4.817238e+07 1.473235e+09 -1.9675817e+09 -1.3772613e+09 5.7686476e+07
-2.3868385e+09 -3.2160852e+09 -7.088871e+09 -4.1426772e+09 -1.3283643e+09 -2.9068111e+09 -4.96333e+08 2.0129663e+09
-4.721262e+09 -1.5956585e+09 -1.5628211e+09 -2.2708076e+09 -2.6299028e+09 -6.2101955e+09 -1.5329482e+09 -8.833509e+08
-5.341834e+08 9.784808e+08 1.853287e+09 -9.301659e+08 -1.6651607e+09 -8.4112006e+08 -3.3034e+09 -3.4864963e+09
-8.735438e+09 -3.265941e+09 -2.947881e+09 -8.706222e+08 1.9956788e+09 2.3874138e+09 -2.4852728e+09 -2.7983923e+09
5.9138784e+08 -2.0118929e+09 -2.2731418e+09 -4.502757e+09 -1.7912164e+09 -9.69496e+08 -6.028076e+08 8.8071834e+08
2.193026e+09 -1.8594694e+09 -1.5591044e+09 9.432859e+08 -2.4611725e+09 -1.3353802e+09 -3.8873298e+09 -2.5284134e+09
-1.2648621e+09 -9.068715e+08 2.1215811e+08 1.4699886e+09 -2.501756e+09 -1.9264252e+09 2.024641e+07 1.4984324e+09
-8.2814906e+08 -2.845163e+09 -2.716449e+09 -1.8170849e+09 -5.48666e+09 7.540729e+08 2.1515584e+09 -2.3403179e+08
4.8182605e+08 3.3339663e+09 -1.2318115e+09 -1.5853244e+09 -3.438208e+09 -2.9694287e+09 -1.3929928e+09 -8.1325235e+08
-2.4629242e+08 2.164774e+09 -2.483985e+09 -1.1642689e+09 3.5149034e+08 -1.2650372e+09 -1.2947752e+09 -4.6274596e+09
-3.8566766e+09 -2.3129114e+09 -1.1136585e+09 -5.1239373e+08 1.985982e+09 -3.9811988e+09 -1.9602298e+09 8.714553e+08
-3.833976e+09 -5.116538e+09 -6.816447e+09 -3.704985e+09 -3.213427e+09 2.9632813e+08 -8.784987e+08 7.0827135e+06
-3.2119805e+09 -2.9354127e+09 -2.5505403e+09 -1.5837036e+09 -6.5512006e+08 -3.1436662e+09 -2.3097088e+09 -1.4565539e+09
-9.647787e+08 -2.50685e+08 1.9587959e+09 -1.7799657e+09 -6.3282963e+08 3.7652138e+08 -1.655109e+09 -1.6125829e+09
-2.7189906e+09 -2.767817e+09 -3.3169966e+09 -1.7821302e+09 -2.8229286e+09 1.0467948e+09 -2.459096e+09 -2.4770854e+09
1.0738426e+09 -9.6169126e+08 -1.3842612e+09 -4.0622863e+09 -2.7309632e+09 -1.3004408e+09 -1.1335228e+09 -1.5236678e+08
1.5614525e+09 -2.0344554e+09 -1.1336887e+09 -1.912489e+08 -2.0387374e+09 -3.3891827e+09 -5.03142e+09 -2.2142067e+09
-2.6200417e+09 9.4786765e+08 -1.0663118e+09 3.2977418e+09 3.5100557e+08 -1.7167078e+09 -9.320381e+07 -1.2055864e+09
-1.8362474e+09 -4.371118e+09 -3.9002798e+09 -6.148917e+08 -9.4765754e+08 -1.9889186e+08 2.5255048e+09 -2.4196198e+09
-2.227318e+09 -7.402493e+08 -1.2877751e+09 -4.173368e+08 -3.7981573e+09 -2.5067832e+09 -1.1478775e+09 -9.877657e+08
-8.6854816e+08 1.9192586e+09 -2.816482e+09 -7.439016e+08 -3.9797028e+07 -1.8630764e+09 -2.1316339e+09 -6.446061e+09

exp_avg_sq f4 [36, 11]
00000000: 520e 8360 e46f ae5f ab01 9960 fb43 1260
00000010: bfe7 7f5f c756 7160 3775 4860 dc80 a260
00000020: 79b9 4d60 169e 2860 d4d1 6960 a2cf d460
00000030: 7262 6a60 9d7c 8060 26a4 8660 56a4 0260
00000040: ce6e be60 ef12 a560 d5b5 de60 7113 a660
00000050: e2f2 7e60 c582 a360 5f33 a060 aea4 d25f
00000060: 9979 bd60 bf57 3660 fe01 d85f a54c 8160
00000070: 32d3 6860 4fb8 b860 146b 7160 3bb8 6460
00000080: 8fc0 9b60 754c 8e60 5280 bc5f 3b1f 9460
00000090: 085e 1760 a0b7 cb5f dfe5 4e60 f41a 2b60
000000a0: c5ec 9260 9ca2 4860 f869 3560 f3cf 7560
000000b0: bc0a 5c60 2770 8f5f fa63 7e60 e337 f65f
000000c0: 915d 385f d447 4460 ed68 2260 8c1b 8160
000000d0: f1fb 2560 9f05 1160 5176 5660 cd34 bf60
000000e0: b31c 7260 df5f 6560 fadd 8060 d1d9 2b60
000000f0: 32d7 2360 e976 7b60 6f83 2760 0301 a160
00000100: cd5e 8160 0d0d 5960 d05a a460 47f5 0460
00000110: 1108 a760 b39d 3360 3480 785f 0711 8260
00000120: 421b 5e60 adb6 b060 4ee3 6a60 0767 4b60
00000130: 8ada 8560 3032 5e60 ee92 865f 8edf 6360
00000140: 36fb f25f 6378 1f5f 8017 3160 aaa7 1360
00000150: 4a52 6760 f22a 1d60 b312 0b60 4261 4260
00000160: cf79 2b61 6683 7c60 385f 1561 c052 a760
00000170: 76cf a25f ae24 e160 f2d7 bc60 2f13 2161
00000180: d1db cf60 9bc0 ce60 c273 0761 d524 e960
00000190: 3fea 2e60 508f da60 cad2 7c60 fbbc 605f
000001a0: b6e0 9660 7195 8260 3f78 ef60 5e84 9260
000001b0: df2f 9460 f6f7 bf60 dbcc 1561 1628 5e60
000001c0: 7af5 0861 eb34 9a60 9b1a 7060 ecda 8360
000001d0: 61ff 8b60 9481 bd60 0140 7460 099c c160
000001e0: fb28 e660 80b0 9160 ee2f c65f ada3 9b60
000001f0: 7db2 1f60 3969 755f e43e 4960 ba41 3860
00000200: f394 a360 d82a 5660 e58f 3a60 f7ea 7f60
00000210: 1b10 7860 3314 ad5f ace5 9160 87e8 0d60
00000220: 6acb 905f 937a 5b60 e78f 3760 cad5 8460
00000230: efb6 4460 ca0b 3460 2ac0 7160 0f47 2a61
00000240: f0ac ea60 b272 f860 7ae1 f860 e6f8 b560
00000250: eff4 3e61 bf8b 1061 7dcf 4a61 c985 b860
00000260: 142a 0861 a743 1a61 e25a 6a60 f75a a25f
00000270: f0fa 8060 f180 fa5f e801 385f 2043 4460
00000280: ad66 2060 7f90 8060 a05b 2660 34d3 1160
00000290: fce2 5660 90d6 4f60 8ee1 c25f 2979 9060
000002a0: 553e 0d60 4673 ea5f 138c 8060 63a4 4960
000002b0: efd2 1160 e7da 5560 a969 2f60 82d4 6a60
000002c0: 952c 1961 4648 5560 8ea8 0e61 d998 a260
000002d0: 8d9c 4e60 d7ec 1160 92dd 8960 01fa ed60
000002e0: 556e a660 86ce b460 8c70 c060 7400 8860
000002f0: a3ac e45f 3fd3 8760 17ce 1660 c26d 465f
00000300: bf4f 5760 ddaa 3560 8f19 9360 c589 4260
00000310: 4829 2460 2cc8 5960 042d 0261 24ff 8460
00000320: 8e1a a760 493b 8e60 c467 1e60 3ecd d860
00000330: c2f4 b660 6381 9b60 1429 b560 e407 8260
00000340: 8535 9660 df4f 7560 0d4b 9f5f 2bec 8460
00000350: 2b3c 0260 489f 2e5f 6c53 5060 1da6 2360
00000360: af19 8960 5530 3a60 f211 1860 ac82 5860
00000370: abb0 1361 ee0a 9460 5437 b260 f8ec 9c60
00000380: 2740 4860 b038 1760 ead6 8360 4e3c 7e60
00000390: d4d0 9460 e1a1 8f60 57d5 8260 98ab a160
000003a0: f31b ef5f 82e0 9a60 71fb 2f60 f941 2e5f
000003b0: 18c2 7060 c95b 4e60 5934 a260 0866 6260
000003c0: 12d9 4d60 7987 8a60 5eab b460 697f 0b60
000003d0: 0b3f b560 8ce4 3e60 b1ba 9e5f 113f 9160
000003e0: d4dd 7660 408d c360 e209 7f60 1c0f 5c60
000003f0: 7609 9b60 e0ca c760 45ed 4360 e355 ff60
7.5548605e+19 2.5139032e+19 8.820225e+19 4.2158174e+19 1.8439917e+19 6.9561223e+19 5.7778047e+19 9.367681e+19
5.929605e+19 4.860069e+19 6.7393923e+19 1.2267723e+20 6.7556748e+19 7.406758e+19 7.761537e+19 3.7654975e+19
1.0977705e+20 9.515866e+19 1.2838374e+20 9.573626e+19 7.3483977e+19 9.425757e+19 9.23494e+19 3.0356896e+19
1.092249e+20 5.255672e+19 3.1130002e+19 7.4536025e+19 6.710723e+19 1.06483804e+20 6.958408e+19 6.592395e+19
8.978502e+19 8.202959e+19 2.7165893e+19 8.538652e+19 4.3628657e+19 2.9358755e+19 5.963427e+19 4.931774e+19
8.469643e+19 5.7829157e+19 5.228901e+19 7.085057e+19 6.342277e+19 2.0671608e+19 7.332308e+19 3.5483798e+19
1.3284934e+19 5.6574025e+19 4.6811457e+19 7.442547e+19 4.7841673e+19 4.1799733e+19 6.1814513e+19 1.102229e+20
6.9784063e+19 6.6112697e+19 7.428682e+19 4.9532634e+19 4.722384e+19 7.2479705e+19 4.8282454e+19 9.281246e+19
7.457691e+19 6.2560685e+19 9.4744055e+19 3.8322567e+19 9.628711e+19 5.177079e+19 1.7906369e+19 7.497824e+19
6.4017833e+19 1.0186844e+20 6.770183e+19 5.8626765e+19 7.716139e+19 6.404365e+19 1.939415e+19 6.5679996e+19
3.5017295e+19 1.1491043e+19 5.1043235e+19 4.255864e+19 6.6673866e+19 4.530052e+19 4.0085076e+19 5.6026196e+19
1.9769815e+20 7.2781996e+19 1.7221413e+20 9.645528e+19 2.346345e+19 1.29786265e+20 1.0886089e+20 1.8570676e+20
1.1982236e+20 1.1918462e+20 1.5616573e+20 1.3439829e+20 5.0415823e+19 1.25991155e+20 7.287138e+19 1.6194094e+19
8.697512e+19 7.527641e+19 1.3804489e+20 8.446133e+19 8.542399e+19 1.1066236e+20 1.7270789e+20 6.4032276e+19
1.5790285e+20 8.889412e+19 6.9205245e+19 7.600933e+19 8.070311e+19 1.0924287e+20 7.0400274e+19 1.11608285e+20
1.3267825e+20 8.398425e+19 2.856179e+19 8.971998e+19 4.602959e+19 1.7683728e+19 5.8005114e+19 5.310839e+19
9.429851e+19 6.172954e+19 5.377286e+19 7.3763293e+19 7.1499266e+19 2.4943299e+19 8.410398e+19 4.0902286e+19
2.08671e+19 6.326046e+19 5.290818e+19 7.657423e+19 5.669912e+19 5.189474e+19 6.967988e+19 1.9631668e+20
1.3528124e+20 1.4322054e+20 1.43469995e+20 1.0489987e+20 2.2015817e+20 1.6665006e+20 2.3382459e+20 1.0637004e+20
1.5698683e+20 1.7785459e+20 6.7548233e+19 2.339787e+19 7.435204e+19 3.6101385e+19 1.3259134e+19 5.656873e+19
4.6232463e+19 7.411235e+19 4.7949403e+19 4.20312e+19 6.193686e+19 5.9905264e+19 2.8085322e+19 8.328318e+19
4.0710663e+19 3.3787847e+19 7.4102395e+19 5.811939e+19 4.2030895e+19 6.1639532e+19 5.055928e+19 6.768517e+19
1.7659777e+20 6.1474443e+19 1.6447396e+20 9.373082e+19 5.955172e+19 4.2060063e+19 7.9474055e+19 1.3718416e+20
9.594093e+19 1.04227985e+20 1.109339e+20 7.839968e+19 3.2955449e+19 7.8297885e+19 4.3466593e+19 1.4298298e+19
6.2059317e+19 5.2362073e+19 8.479728e+19 5.6071808e+19 4.731626e+19 6.2771365e+19 1.5008253e+20 7.6667345e+19
9.632874e+19 8.1990925e+19 4.565723e+19 1.2497769e+20 1.05467e+20 8.964277e+19 1.044319e+20 7.495767e+19
8.658963e+19 7.070637e+19 2.2956565e+19 7.662462e+19 3.753769e+19 1.2582855e+19 6.0045843e+19 4.716858e+19
7.903296e+19 5.3665267e+19 4.383122e+19 6.2404885e+19 1.702751e+20 8.53408e+19 1.027346e+20 9.046148e+19
5.7718304e+19 4.358661e+19 7.60003e+19 7.3278413e+19 8.578643e+19 8.279841e+19 7.54203e+19 9.319658e+19
3.4459264e+19 8.92805e+19 5.0723414e+19 1.2556591e+19 6.939382e+19 5.94788e+19 9.350452e+19 6.525494e+19
5.9331627e+19 7.985664e+19 1.0414882e+20 4.0207473e+19 1.0448136e+20 5.5021092e+19 2.2875298e+19 8.372882e+19
7.115443e+19 1.1272791e+20 7.3509873e+19 6.3427694e+19 8.937272e+19 1.1517252e+20 5.6472065e+19 1.4719089e+20

exp_avg f4 [36]
00000000: f7c1 24cf b3e3 a3ce 0e83 47cf 3b5c e8ce
00000010: 1fe0 16cf 495d 63cf 5f9c 26cf 1a27 14cf
00000020: d237 64cf 0707 1ccf f0b2 4fcf cd7e 3dcf
00000030: d406 24cf 5103 2dce bd04 02cf 7753 0bcf
00000040: 866f 65cf 4a95 24cf f189 17cf 9e41 eece
00000050: 151b 4ccf 7c95 fece 0c1d f6ce e308 1ccf
00000060: 16b5 22cf 87bf 18cf bafb 2ecf aaa6 00cf
00000070: 8af1 31cf 929f 28cf 5a4b 28cf bd8a 17cf
00000080: a812 4dce c4ad 03cf 4d83 60ce 9b5a 9ccf
-2.764175e+09 -1.3748044e+09 -3.3472548e+09 -1.9491793e+09 -2.5312704e+09 -3.8145416e+09 -2.7952658e+09 -2.4855905e+09
-3.8288635e+09 -2.6177062e+09 -3.4846106e+09 -3.1792038e+09 -2.751911e+09 -7.256689e+08 -2.1813486e+09 -2.337503e+09
-3.8492913e+09 -2.7612472e+09 -2.5423997e+09 -1.9986388e+09 -3.424327e+09 -2.1356047e+09 -2.0645494e+09 -2.617828e+09
-2.7297766e+09 -2.5626888e+09 -2.9357327e+09 -2.1584061e+09 -2.9853967e+09 -2.82903e+09 -2.8235105e+09 -2.542452e+09
-8.60138e+08 -2.2092032e+09 -9.416753e+08 -5.246367e+09

exp_avg_sq f4 [36]
00000000: 9888 4660 ab35 9260 6989 8260 d50d 5b60
00000010: f6e5 2f60 f0b9 9160 aea3 7360 d2ff 2e60
00000020: d011 ee60 b82b a860 2dcc c760 ab87 6a60
00000030: 11b2 5960 9b0a 1c61 bcdb 3160 7c4e 4360
00000040: 490a cd60 3df2 3f60 983b a160 cd16 3760
00000050: b33c a960 7ed2 7660 9d8f 8360 4c30 ab60
00000060: ce31 8c60 0c71 4160 7fd5 9360 22e1 8a60
00000070: 1e88 d660 3e7b 5160 8a06 8460 d79f fc60
00000080: 7371 a460 6420 6260 6903 b660 ade6 0561
5.7223405e+19 8.428412e+19 7.524932e+19 6.3138026e+19 5.069923e+19 8.40055e+19 7.022427e+19 5.0440114e+19
1.3723777e+20 9.694385e+19 1.1517545e+20 6.7598657e+19 6.2746477e+19 1.7990352e+20 5.1264175e+19 5.629329e+19
1.1819761e+20 5.532474e+19 9.294437e+19 5.277183e+19 9.755855e+19 7.1141666e+19 7.583975e+19 9.868354e+19
8.0816656e+19 5.575574e+19 8.522048e+19 8.005854e+19 1.2366911e+20 6.0378907e+19 7.610754e+19 1.4562804e+20
9.479503e+19 6.5176534e+19 1.0492354e+20 1.5437743e+20

exp_avg f4 [24, 36]
00000000: f258 77ce b62f 5acd 7c5e a7ce 90e1 8cce
00000010: 18cb b2ce 10b3 b0cd b00c 79ce d7d0 8bce
00000020: cc2e 8ece 677b 8ace 2328 48ce 1f43 8cce
00000030: 09db cbce 50c9 87cd 686e 9bce f73d a1ce
00000040: 6df7 5fce 0940 60ce c638 40ce 1413 97ce
00000050: 5aa6 dbcd c90a 9fce d80c 3dce 57cc 08ce
00000060: 71bf 9fce 93a7 c7ce ed8c 034b 5d56 94ce
00000070: 8d12 ffcd 7cfe 9dce 341c 78ce 5a34 8dce
00000080: f7cb 6dcc c1b4 8bce d084 51cd e215 9fce
00000090: c854 fbcd 3f2a 774d e90c 5ace 6545 3ace
000000a0: 760f 37ce 7b89 afcd 7be0 15ce fc98 24ce
000000b0: 1c49 3ece e71c 23ce 5074 26ce d1f9 2ece
000000c0: 234b 84ce 4720 27cb f4b9 13ce d900 51ce
000000d0: 91f4 37ce 38e6 f5cd c22a f9cd 4f58 29ce
000000e0: 531e e0cd e07b 3dce 3f1c 8ccd b731 77cd
000000f0: b269 4ece 5919 5cce 2286 a2cc 1e73 20ce
00000100: 0d8d 75cc 2981 11ce d181 18ce 3213 45ce
00000110: e2bf 4dcd a911 08ce 5b4c 0d4b ed73 77ce
00000120: 3262 3bce 3dde 92cc eb5d 95ce e2e6 80ce
00000130: 0044 89ce 672b fbcd ab52 47ce f81e 47ce
00000140: a257 8ece 9f85 8ace 2d79 62ce e849 82ce
00000150: 61e3 aace 3439 eccd c1f7 77ce b6a9 71ce
00000160: e5d0 46ce fc2c 2ece 1102 e7cd a4ac 78ce
00000170: e689 19ce 2974 8ace ce39 19ce 961a d5cd
00000180: d801 9ace f863 9ece 3227 95cd 03c7 8ace
00000190: 6aba dbcd 0db3 80ce 7d20 5cce 5acf 95ce
000001a0: c565 a8cd 7396 80ce d698 68cd 31d6 98ce
000001b0: 0400 0000 0400 0000 0400 0000 0400 0000
000001c0: 0400 0000 0400 0000 0400 0000 0400 0000
000001d0: 0400 0000 0400 0000 0400 0000 0400 0000
000001e0: 0400 0000 0400 0000 0400 0000 0400 0000
000001f0: 0400 0000 0400 0000 0400 0000 0400 0000
00000200: 0400 0000 0400 0000 0400 0000 0400 0000
00000210: 0400 0000 0400 0000 0400 0000 0400 0000
00000220: 0400 0000 0400 0000 0400 0000 0400 0000
00000230: 0400 0000 0400 0000 0400 0000 0400 0000
00000240: f4dd 3bce 5f30 44cd 7613 8ece 85d7 60ce
00000250: 0d74 77ce be71 f1cd 9100 3cce 882a 4fce
00000260: ce28 63ce 3d0d 63ce 985e 7bce b4c4 5fce
00000270: bc4d a3ce fde2 edcd c955 57ce 8b83 8ace
00000280: 18aa 53ce c500 2cce 14e9 37ce b5d1 49ce
00000290: 846e 15ce b377 6dce c217 09ce df3c c9cd
000002a0: d2e4 7cce b5a6 88ce 9061 abcd 0bb4 59ce
000002b0: cbb4 f6cd 2a03 60ce 875b 41ce 85a8 68ce
000002c0: afa9 4fcd 9c0a 51ce f16f cccd afeb 9ace
000002d0: 0400 0000 0400 0000 0400 0000 0400 0080
000002e0: 0400 0000 0400 0000 0400 0000 0400 0000
000002f0: 0400 0000 0400 0000 0400 0000 0400 0000
00000300: 0400 0000 0400 0000 0400 0000 0400 0000
00000310: 0400 0000 0400 0000 0400 0000 0400 0080
00000320: 0400 0000 0400 0000 0400 0000 0400 0000
00000330: 0400 0000 0400 0000 0400 0000 0400 0000
00000340: 0400 0000 0400 0000 0400 0000 0400 0000
00000350: 0400 0000 0400 0000 0400 0000 0400 0000
00000360: 61cb 65ce 5e67 8ecd bfec 96ce 4d69 6dce
00000370: 7012 9bce 7f8b f7cd e9c7 6ece 7be1 7cce
00000380: a724 6ece a705 89ce e3eb 29ce c636 84ce
00000390: e589 a6ce edac edcd 2829 80ce b05d 83ce
000003a0: 3487 4bce 6377 55ce 4fda 45ce f3ea 88ce
000003b0: a744 22ce 7602 78ce cf45 37ce 6fa8 20ce
000003c0: 0bef 8cce 7c0e acce 6ad2 20cd 5508 74ce
000003d0: cf52 0bce f0d9 8cce 8a6e 72ce bbd3 92ce
000003e0: 54ae b8cd 7510 82ce 122e f3cd 358f 88ce
000003f0: 0400 0000 0400 0000 0400 0000 0400 0000
-1.0374504e+09 -2.28785e+08 -1.4039936e+09 -1.1817964e+09 -1.4998272e+09 -3.7056563e+08 -1.0445896e+09 -1.1728598e+09
-1.1927158e+09 -1.1616716e+09 -8.395184e+08 -1.1766045e+09 -1.7100648e+09 -2.8476467e+08 -1.303852e+09 -1.3525964e+09
-9.393836e+08 -9.4057325e+08 -8.0623654e+08 -1.267305e+09 -4.6063904e+08 -1.3341421e+09 -7.929339e+08 -5.7377325e+08
-1.3400618e+09 -1.6748241e+09 8.621293e+06 -1.2443439e+09 -5.3492573e+08 -1.3253504e+09 -1.0406495e+09 -1.1845092e+09
-6.2336988e+07 -1.1719395e+09 -2.1969638e+08 -1.3345057e+09 -5.2707968e+08 2.5917131e+08 -9.145698e+08 -7.812775e+08
-7.6781094e+08 -3.6812784e+08 -6.286292e+08 -6.9037235e+08 -7.981156e+08 -6.841451e+08 -6.981601e+08 -7.339019e+08
-1.1097583e+09 -1.0952775e+07 -6.1960934e+08 -8.766234e+08 -7.715646e+08 -5.156882e+08 -5.2254112e+08 -7.102842e+08
-4.7001046e+08 -7.94753e+08 -2.9383267e+08 -2.592019e+08 -8.6575834e+08 -9.231622e+08 -8.520936e+07 -6.729747e+08
-6.4369716e+07 -6.1029024e+08 -6.396611e+08 -8.265924e+08 -2.1574403e+08 -5.707147e+08 9.260123e+06 -1.0378924e+09
-7.859437e+08 -7.700119e+07 -1.2529801e+09 -1.0813074e+09 -1.1514675e+09 -5.267407e+08 -8.360209e+08 -8.351739e+08
-1.1940539e+09 -1.1620064e+09 -9.4989805e+08 -1.0929408e+09 -1.4335141e+09 -4.9539648e+08 -1.0400523e+09 -1.0136078e+09
-8.338947e+08 -7.305459e+08 -4.8445904e+08 -1.04301594e+09 -6.4398784e+08 -1.1614342e+09 -6.426756e+08 -4.4691117e+08
-1.291906e+09 -1.3286758e+09 -3.1279674e+08 -1.1641491e+09 -4.608034e+08 -1.079609e+09 -9.2327917e+08 -1.2566971e+09
-3.5315523e+08 -1.0786717e+09 -2.4389565e+08 -1.282087e+09 6e-45 6e-45 6e-45 6e-45
6e-45 6e-45 6e-45 6e-45 6e-45 6e-45 6e-45 6e-45
6e-45 6e-45 6e-45 6e-45 6e-45 6e-45 6e-45 6e-45
6e-45 6e-45 6e-45 6e-45 6e-45 6e-45 6e-45 6e-45
6e-45 6e-45 6e-45 6e-45 6e-45 6e-45 6e-45 6e-45
-7.879713e+08 -2.0571902e+08 -1.19182e+09 -9.4305517e+08 -1.03789446e+09 -5.063454e+08 -7.8853843e+08 -8.6891776e+08
-9.5277555e+08 -9.523239e+08 -1.0543201e+09 -9.385526e+08 -1.3698903e+09 -4.988845e+08 -9.0318086e+08 -1.1619383e+09
-8.8778496e+08 -7.214329e+08 -7.713764e+08 -8.4649094e+08 -6.26762e+08 -9.960112e+08 -5.750089e+08 -4.220262e+08
-1.0607136e+09 -1.1463133e+09 -3.5941222e+08 -9.131138e+08 -5.1738045e+08 -9.3957594e+08 -8.1100026e+08 -9.7583955e+08
-2.1775026e+08 -8.7678336e+08 -4.2873603e+08 -1.2995685e+09 6e-45 6e-45 6e-45 -6e-45
6e-45 6e-45 6e-45 6e-45 6e-45 6e-45 6e-45 6e-45
6e-45 6e-45 6e-45 6e-45 6e-45 6e-45 6e-45 -6e-45
6e-45 6e-45 6e-45 6e-45 6e-45 6e-45 6e-45 6e-45
6e-45 6e-45 6e-45 6e-45 6e-45 6e-45 6e-45 6e-45
-9.638278e+08 -2.9864237e+08 -1.2660489e+09 -9.957753e+08 -1.3008384e+09 -5.191393e+08 -1.0015197e+09 -1.0606589e+09
-9.9884486e+08 -1.1494245e+09 -7.1270214e+08 -1.1090911e+09 -1.3970275e+09 -4.9844163e+08 -1.0750904e+09 -1.1019776e+09
-8.536589e+08 -8.953428e+08 -8.2985466e+08 -1.1485495e+09 -6.8060205e+08 -1.0402277e+09 -7.687014e+08 -6.7384826e+08
-1.1822381e+09 -1.4433152e+09 -1.6863402e+08 -1.0235467e+09 -5.84365e+08 -1.1815465e+09 -1.01683264e+09 -1.2316748e+09
-3.8730406e+08 -1.0910583e+09 -5.0998534e+08 -1.1455433e+09 6e-45 6e-45 6e-45 6e-45
